…
0.5, seed=0, shear=0.0, show=False, show_boxes=True, show_conf=True, show_labels=True, simplify=True, single_cls=False, source=None, split=val, stream_buffer=False, task=detect, time=None, tracker=botsort.yaml, translate=0.1, val=True, verbose=False, vid_stride=1, visualize=False, warmup_bias_lr=0.1, warmup_epochs=3.0, warmup_momentum=0.8, weight_decay=0.0005, workers=8, workspace=None\r\nOverriding model.yaml nc=80 with nc=1\r\n                   from  n    params  module                                       arguments                     \r\n  0                  -1  1       464  ultralytics.nn.modules.conv.Conv             [3, 16, 3, 2]                 \r\n  1                  -1  1      4672  ultralytics.nn.modules.conv.Conv             [16, 32, 3, 2]                \r\n  2                  -1  1      7360  ultralytics.nn.modules.block.C2f             [32, 32, 1, True]             \r\n  3                  -1  1     18560  ultralytics.nn.modules.conv.Conv             [32, 64, 3, 2]                \r\n  4                  -1  2     49664  ultralytics.nn.modules.block.C2f             [64, 64, 2, True]             \r\n  5                  -1  1     73984  ultralytics.nn.modules.conv.Conv             [64, 128, 3, 2]               \r\n  6                  -1  2    197632  ultralytics.nn.modules.block.C2f             [128, 128, 2, True]           \r\n  7                  -1  1    295424  ultralytics.nn.modules.conv.Conv             [128, 256, 3, 2]              \r\n  8                  -1  1    460288  ultralytics.nn.modules.block.C2f             [256, 256, 1, True]           \r\n  9                  -1  1    164608  ultralytics.nn.modules.block.SPPF            [256, 256, 5]                 \r\n 10                  -1  1         0  torch.nn.modules.upsampling.Upsample         [None, 2, 'nearest']          \r\n 11             [-1, 6]  1         0  ultralytics.nn.modules.conv.Concat           [1]                           \r\n 12                  -1  1    148224  ultralytics.nn.modules.block.C2f             [384, 128, 1]                 \r\n 13                  -1  1         0  torch.nn.modules.upsampling.Upsample         [None, 2, 'nearest']          \r\n 14             [-1, 4]  1         0  ultralytics.nn.modules.conv.Concat           [1]                           \r\n 15                  -1  1     37248  ultralytics.nn.modules.block.C2f             [192, 64, 1]                  \r\n 16                  -1  1     36992  ultralytics.nn.modules.conv.Conv             [64, 64, 3, 2]                \r\n 17            [-1, 12]  1         0  ultralytics.nn.modules.conv.Concat           [1]                           \r\n 18                  -1  1    123648  ultralytics.nn.modules.block.C2f             [192, 128, 1]                 \r\n 19                  -1  1    147712  ultralytics.nn.modules.conv.Conv             [128, 128, 3, 2]              \r\n 20             [-1, 9]  1         0  ultralytics.nn.modules.conv.Concat           [1]                           \r\n 21                  -1  1    493056  ultralytics.nn.modules.block.C2f             [384, 256, 1]                 \r\n 22        [15, 18, 21]  1    751507  ultralytics.nn.modules.head.Detect           [1, 16, None, [64, 128, 256]] \r\nModel summary: 130 layers, 3,011,043 parameters, 3,011,027 gradients, 8.2 GFLOPs\r\nTransferred 319/355 items from pretrained weights\r\nFreezing layer 'model.22.dfl.conv.weight'\r\n\u001B[34m\u001B[1mAMP: \u001B[0mrunning Automatic Mixed Precision (AMP) checks...\r\n\u001B[34m\u001B[1mAMP: \u001B[0mchecks passed \r\n\u001B[34m\u001B[1mtrain: \u001B[0mFast image ac
…
